Weights/FCE.pt (torch, 1841 bytes, 3 tensors)

classifier.0.weight f4 [8, 3]
00000000: ce6c f43e a620 4dbe 6518 fc3e f2dc ba3e
00000010: 2eb8 dc3e 6982 2ebe 777e 443d c6a0 013f
00000020: d037 5b3e b66f 1dbd 8300 33be b345 e1be
00000030: 622e e7be a62c d5be e393 583e 224c 07be
00000040: 54bb 103f 8a29 353e 1600 313e 8754 37be
00000050: 4621 023f 4ee2 3fbe 2742 113f a0b1 233f
0.4773926 -0.20031986 0.49237362 0.36496693 0.43109268 -0.17041935 0.04797217 0.50635946
0.2140801 -0.038436614 -0.17480664 -0.4399849 -0.45152575 -0.41635627 0.21150164 -0.13212636
0.5653584 0.17691627 0.17285189 -0.17903338 0.5083202 -0.18738672 0.56741565 0.6394291

classifier.0.bias f4 [8]
00000000: d7c8 acbe e882 94bd e54b 35be dc4b cd3e
00000010: 635f b3be 320a cdbe c677 a0bd 76c9 98bd
-0.3374698 -0.07251531 -0.17704733 0.4009694 -0.35033712 -0.4004684 -0.07835345 -0.074603006

classifier.2.weight f4 [1, 8]
00000000: c0e5 cc3e 47ed 2f3e 1a0c 9f3e 387f 90be
00000010: a5c6 8c3e fa2e da3e 80f6 833e f685 a93d
0.40019035 0.17180358 0.3106392 -0.2822206 0.27495304 0.42613965 0.25774002 0.08277504
